…
        12,
        12,
        12,
        12,
        12,
        12,
        12,
        12
    ]
}
2022-05-08 22:56:48,976 - INFO - Experiment set up.
2022-05-08 22:56:49,004 - INFO - TempPointConv(
  (relu): ReLU()
  (sigmoid): Sigmoid()
  (hardtanh): Hardtanh(min_val=0.020833333333333332, max_val=100)
  (msle_loss): MSLELoss(
    (squared_error): MSELoss()
  )
  (mse_loss): MSELoss(
    (squared_error): MSELoss()
  )
  (bce_loss): BCELoss()
  (main_dropout): Dropout(p=0.45, inplace=False)
  (temp_dropout): Dropout(p=0.05, inplace=False)
  (empty_module): EmptyModule()
  (diagnosis_encoder): Linear(in_features=293, out_features=64, bias=True)
  (bn_diagnosis_encoder): MyBatchNorm1d(64, eps=1e-05, momentum=0.1, affine=True, track_running_stats=True)
  (bn_point_last_los): MyBatchNorm1d(17, eps=1e-05, momentum=0.1, affine=True, track_running_stats=True)
  (bn_point_last_mort): MyBatchNorm1d(17, eps=1e-05, momentum=0.1, affine=True, track_running_stats=True)
  (point_final_los): Linear(in_features=17, out_features=1, bias=True)
  (point_final_mort): Linear(in_features=17, out_features=1, bias=True)
  (layer_modules): ModuleDict(
    (0): ModuleDict(
      (temp): Conv1d(174, 1044, kernel_size=(4,), stride=(1,), groups=87)
      (bn_temp): MyBatchNorm1d(1044, eps=1e-05, momentum=0.1, affine=True, track_running_stats=True)
    )
    (1): ModuleDict(
      (temp): Conv1d(1131, 1044, kernel_size=(4,), stride=(1,), dilation=(3,), groups=87)
      (bn_temp): MyBatchNorm1d(1044, eps=1e-05, momentum=0.1, affine=True, track_running_stats=True)
    )
    (2): ModuleDict(
      (temp): Conv1d(1131, 1044, kernel_size=(4,), stride=(1,), dilation=(6,), groups=87)
      (bn_temp): MyBatchNorm1d(1044, eps=1e-05, momentum=0.1, affine=True, track_running_stats=True)
    )
    (3): ModuleDict(
      (temp): Conv1d(1131, 1044, kernel_size=(4,), stride=(1,), dilation=(9,), groups=87)
      (bn_temp): MyBatchNorm1d(1044, eps=1e-05, momentum=0.1, affine=True, track_running_stats=True)
    )
    (4): ModuleDict(
      (temp): Conv1d(1131, 1044, kernel_size=(4,), stride=(1,), dilation=(12,), groups=87)
      (bn_temp): MyBatchNorm1d(1044, eps=1e-05, momentum=0.1, affine=True, track_running_stats=True)
    )
    (5): ModuleDict(
      (temp): Conv1d(1131, 1044, kernel_size=(4,), stride=(1,), dilation=(15,), groups=87)
      (bn_temp): MyBatchNorm1d(1044, eps=1e-05, momentum=0.1, affine=True, track_running_stats=True)
    )
    (6): ModuleDict(
      (temp): Conv1d(1131, 1044, kernel_size=(4,), stride=(1,), dilation=(18,), groups=87)
      (bn_temp): MyBatchNorm1d(1044, eps=1e-05, momentum=0.1, affine=True, track_running_stats=True)
    )
    (7): ModuleDict(
      (temp): Conv1d(1131, 1044, kernel_size=(4,), stride=(1,), dilation=(21,), groups=87)
      (bn_temp): MyBatchNorm1d(1044, eps=1e-05, momentum=0.1, affine=True, track_running_stats=True)
    )
    (8): ModuleDict(
      (temp): Conv1d(1131, 1044, kernel_size=(4,), stride=(1,), dilation=(24,), groups=87)
      (bn_temp): MyBatchNorm1d(1044, eps=1e-05, momentum=0.1, affine=True, track_running_stats=True)
    )
  )
  (point_last_los): Linear(in_features=1260, out_features=17, bias=True)
  (point_last_mort): Linear(in_features=1260, out_features=17, bias=True)
)
2022-05-09 00:07:39,040 - INFO - Custom bins confusion matrix:
2022-05-09 00:07:39,041 - INFO - [[1065774  792467  157005   47386   18703    8788    4673    2608    4496
     1103]
 [ 390470  564222  169691   59442   24874   12060    6464    3645    6135
     1448]
 [ 136353  338774  154248   63400   29069   14430    8138    4815    8602
     2164]
 [  54048  192212  123997   60051   30260   16367    9384    5844   11009
…
