…
    "sum_losses": true,
    "task": "LoS",
    "trans_dropout_rate": 0
}
2022-05-08 18:21:09,577 - INFO - Experiment set up.
2022-05-08 18:21:09,603 - INFO - Transformer(
  (relu): ReLU()
  (sigmoid): Sigmoid()
  (hardtanh): Hardtanh(min_val=0.020833333333333332, max_val=100)
  (trans_dropout): Dropout(p=0, inplace=False)
  (main_dropout): Dropout(p=0.45, inplace=False)
  (msle_loss): MSLELoss(
    (squared_error): MSELoss()
  )
  (mse_loss): MSELoss(
    (squared_error): MSELoss()
  )
  (bce_loss): BCELoss()
  (empty_module): EmptyModule()
  (transformer): TransformerEncoder(
    (input_embedding): Conv1d(176, 16, kernel_size=(1,), stride=(1,))
    (pos_encoder): PositionalEncoding()
    (trans_encoder_layer): TransformerEncoderLayer(
      (self_attn): MultiheadAttention(
        (out_proj): NonDynamicallyQuantizableLinear(in_features=16, out_features=16, bias=True)
      )
      (linear1): Linear(in_features=16, out_features=256, bias=True)
      (dropout): Dropout(p=0, inplace=False)
      (linear2): Linear(in_features=256, out_features=16, bias=True)
      (norm1): LayerNorm((16,), eps=1e-05, elementwise_affine=True)
      (norm2): LayerNorm((16,), eps=1e-05, elementwise_affine=True)
      (dropout1): Dropout(p=0, inplace=False)
      (dropout2): Dropout(p=0, inplace=False)
    )
    (transformer_encoder): TransformerEncoder(
      (layers): ModuleList(
        (0): TransformerEncoderLayer(
          (self_attn): MultiheadAttention(
            (out_proj): NonDynamicallyQuantizableLinear(in_features=16, out_features=16, bias=True)
          )
          (linear1): Linear(in_features=16, out_features=256, bias=True)
          (dropout): Dropout(p=0, inplace=False)
          (linear2): Linear(in_features=256, out_features=16, bias=True)
          (norm1): LayerNorm((16,), eps=1e-05, elementwise_affine=True)
          (norm2): LayerNorm((16,), eps=1e-05, elementwise_affine=True)
          (dropout1): Dropout(p=0, inplace=False)
          (dropout2): Dropout(p=0, inplace=False)
        )
        (1): TransformerEncoderLayer(
          (self_attn): MultiheadAttention(
            (out_proj): NonDynamicallyQuantizableLinear(in_features=16, out_features=16, bias=True)
          )
          (linear1): Linear(in_features=16, out_features=256, bias=True)
          (dropout): Dropout(p=0, inplace=False)
          (linear2): Linear(in_features=256, out_features=16, bias=True)
          (norm1): LayerNorm((16,), eps=1e-05, elementwise_affine=True)
          (norm2): LayerNorm((16,), eps=1e-05, elementwise_affine=True)
          (dropout1): Dropout(p=0, inplace=False)
          (dropout2): Dropout(p=0, inplace=False)
        )
        (2): TransformerEncoderLayer(
          (self_attn): MultiheadAttention(
            (out_proj): NonDynamicallyQuantizableLinear(in_features=16, out_features=16, bias=True)
          )
          (linear1): Linear(in_features=16, out_features=256, bias=True)
          (dropout): Dropout(p=0, inplace=False)
          (linear2): Linear(in_features=256, out_features=16, bias=True)
          (norm1): LayerNorm((16,), eps=1e-05, elementwise_affine=True)
          (norm2): LayerNorm((16,), eps=1e-05, elementwise_affine=True)
          (dropout1): Dropout(p=0, inplace=False)
          (dropout2): Dropout(p=0, inplace=False)
        )
        (3): TransformerEncoderLayer(
          (self_attn): MultiheadAttention(
            (out_proj): NonDynamicallyQuantizableLinear(in_features=16, out_features=16, bias=True)
          )
          (linear1): Linear(in_features=16, out_features=256, bias=True)
          (dropout): Dropout(p=0, inplace=False)
          (linear2): Linear(in_features=256, out_features=16, bias=True)
          (norm1): LayerNorm((16,), eps=1e-05, elementwise_affine=True)
          (norm2): LayerNorm((16,), eps=1e-05, elementwise_affine=True)
          (dropout1): Dropout(p=0, inplace=False)
          (dropout2): Dropout(p=0, inplace=False)
        )
        (4): TransformerEncoderLayer(
          (self_attn): MultiheadAttention(
            (out_proj): NonDynamicallyQuantizableLinear(in_features=16, out_features=16, bias=True)
          )
          (linear1): Linear(in_features=16, out_features=256, bias=True)
          (dropout): Dropout(p=0, inplace=False)
          (linear2): Linear(in_features=256, out_features=16, bias=True)
          (norm1): LayerNorm((16,), eps=1e-05, elementwise_affine=True)
          (norm2): LayerNorm((16,), eps=1e-05, elementwise_affine=True)
          (dropout1): Dropout(p=0, inplace=False)
          (dropout2): Dropout(p=0, inplace=False)
        )
        (5): TransformerEncoderLayer(
          (self_attn): MultiheadAttention(
            (out_proj): NonDynamicallyQuantizableLinear(in_features=16, out_features=16, bias=True)
          )
          (linear1): Linear(in_features=16, out_features=256, bias=True)
          (dropout): Dropout(p=0, inplace=False)
          (linear2): Linear(in_features=256, out_features=16, bias=True)
          (norm1): LayerNorm((16,), eps=1e-05, elementwise_affine=True)
          (norm2): LayerNorm((16,), eps=1e-05, elementwise_affine=True)
          (dropout1): Dropout(p=0, inplace=False)
          (dropout2): Dropout(p=0, inplace=False)
        )
      )
    )
  )
  (diagnosis_encoder): Linear(in_features=293, out_features=64, bias=True)
  (bn_diagnosis_encoder): MyBatchNorm1d(64, eps=1e-05, momentum=0.1, affine=True, track_running_stats=True)
  (point_los): Linear(in_features=145, out_features=17, bias=True)
  (point_mort): Linear(in_features=145, out_features=17, bias=True)
  (bn_point_last_los): MyBatchNorm1d(17, eps=1e-05, momentum=0.1, affine=True, track_running_stats=True)
  (bn_point_last_mort): MyBatchNorm1d(17, eps=1e-05, momentum=0.1, affine=True, track_running_stats=True)
  (point_final_los): Linear(in_features=17, out_features=1, bias=True)
  (point_final_mort): Linear(in_features=17, out_features=1, bias=True)
)
2022-05-08 18:35:00,110 - INFO - Custom bins confusion matrix:
2022-05-08 18:35:00,110 - INFO - [[ 767919 1043424  173014   60110   27426   13516    7314    4072    5670
      538]
 [ 325953  621482  154395   65186   32591   16823    9103    5124    7132
      662]
 [ 149384  364559  119929   57784   30148   16220    8872    5044    7409
      644]
 [  77186  226689   92139   48524   26435   14442    8084    4706    7162
…
